…
        This model is initialized with extra kwargs: {'has_image_input': False, 'patch_size': [1, 2, 2], 'in_dim': 33, 'dim': 1536, 'ffn_dim': 8960, 'freq_dim': 256, 'text_dim': 4096, 'out_dim': 16, 'num_heads': 12, 'num_layers': 30, 'eps': 1e-06}
Using WanModel with dim=1536, in_dim=33, ffn_dim=8960, out_dim=16, text_dim=4096, freq_dim=256, eps=1e-06, patch_size=[1, 2, 2], num_heads=12, num_layers=30, has_image_input=False, audio_hidden_size=32
[AudioPack] in_channels: 10752, t, h, w: 4, 1, 1
[AudioPack] patch_size: (4, 1, 1)
[AudioPack] proj: Linear(in_features=43008, out_features=32, bias=True)
[AudioPack] norm_out: LayerNorm((32,), eps=1e-05, elementwise_affine=True)

[WanModel] patch_embedding: Conv3d(33, 1536, kernel_size=(1, 2, 2), stride=(1, 2, 2))
[WanModel] text_embedding: Sequential(
  (0): Linear(in_features=4096, out_features=1536, bias=True)
  (1): GELU(approximate='tanh')
  (2): Linear(in_features=1536, out_features=1536, bias=True)
)
[WanModel] time_embedding: Sequential(
  (0): Linear(in_features=256, out_features=1536, bias=True)
  (1): SiLU()
  (2): Linear(in_features=1536, out_features=1536, bias=True)
)
[WanModel] time_projection: Sequential(
  (0): SiLU()
  (1): Linear(in_features=1536, out_features=9216, bias=True)
)
[WanModel] blocks (DiTBlock):
  Block 0: DiTBlock(
  (self_attn): SelfAttention(
    (q): Linear(in_features=1536, out_features=1536, bias=True)
    (k): Linear(in_features=1536, out_features=1536, bias=True)
    (v): Linear(in_features=1536, out_features=1536, bias=True)
    (o): Linear(in_features=1536, out_features=1536, bias=True)
    (norm_q): RMSNorm()
    (norm_k): RMSNorm()
    (attn): AttentionModule()
  )
  (cross_attn): CrossAttention(
    (q): Linear(in_features=1536, out_features=1536, bias=True)
    (k): Linear(in_features=1536, out_features=1536, bias=True)
    (v): Linear(in_features=1536, out_features=1536, bias=True)
    (o): Linear(in_features=1536, out_features=1536, bias=True)
    (norm_q): RMSNorm()
    (norm_k): RMSNorm()
    (attn): AttentionModule()
  )
  (norm1): LayerNorm((1536,), eps=1e-06, elementwise_affine=False)
  (norm2): LayerNorm((1536,), eps=1e-06, elementwise_affine=False)
  (norm3): LayerNorm((1536,), eps=1e-06, elementwise_affine=True)
  (ffn): Sequential(
    (0): Linear(in_features=1536, out_features=8960, bias=True)
    (1): GELU(approximate='tanh')
    (2): Linear(in_features=8960, out_features=1536, bias=True)
  )
  (gate): GateModule()
)
  Block 1: DiTBlock(
  (self_attn): SelfAttention(
    (q): Linear(in_features=1536, out_features=1536, bias=True)
    (k): Linear(in_features=1536, out_features=1536, bias=True)
    (v): Linear(in_features=1536, out_features=1536, bias=True)
    (o): Linear(in_features=1536, out_features=1536, bias=True)
    (norm_q): RMSNorm()
    (norm_k): RMSNorm()
    (attn): AttentionModule()
  )
  (cross_attn): CrossAttention(
    (q): Linear(in_features=1536, out_features=1536, bias=True)
    (k): Linear(in_features=1536, out_features=1536, bias=True)
    (v): Linear(in_features=1536, out_features=1536, bias=True)
    (o): Linear(in_features=1536, out_features=1536, bias=True)
    (norm_q): RMSNorm()
    (norm_k): RMSNorm()
    (attn): AttentionModule()
  )
  (norm1): LayerNorm((1536,), eps=1e-06, elementwise_affine=False)
  (norm2): LayerNorm((1536,), eps=1e-06, elementwise_affine=False)
  (norm3): LayerNorm((1536,), eps=1e-06, elementwise_affine=True)
  (ffn): Sequential(
    (0): Linear(in_features=1536, out_features=8960, bias=True)
    (1): GELU(approximate='tanh')
    (2): Linear(in_features=8960, out_features=1536, bias=True)
  )
  (gate): GateModule()
)
  Block 2: DiTBlock(
  (self_attn): SelfAttention(
    (q): Linear(in_features=1536, out_features=1536, bias=True)
    (k): Linear(in_features=1536, out_features=1536, bias=True)
    (v): Linear(in_features=1536, out_features=1536, bias=True)
    (o): Linear(in_features=1536, out_features=1536, bias=True)
    (norm_q): RMSNorm()
    (norm_k): RMSNorm()
    (attn): AttentionModule()
  )
  (cross_attn): CrossAttention(
    (q): Linear(in_features=1536, out_features=1536, bias=True)
    (k): Linear(in_features=1536, out_features=1536, bias=True)
    (v): Linear(in_features=1536, out_features=1536, bias=True)
    (o): Linear(in_features=1536, out_features=1536, bias=True)
    (norm_q): RMSNorm()
    (norm_k): RMSNorm()
    (attn): AttentionModule()
  )
  (norm1): LayerNorm((1536,), eps=1e-06, elementwise_affine=False)
  (norm2): LayerNorm((1536,), eps=1e-06, elementwise_affine=False)
  (norm3): LayerNorm((1536,), eps=1e-06, elementwise_affine=True)
  (ffn): Sequential(
    (0): Linear(in_features=1536, out_features=8960, bias=True)
    (1): GELU(approximate='tanh')
    (2): Linear(in_features=8960, out_features=1536, bias=True)
  )
  (gate): GateModule()
)
  Block 3: DiTBlock(
  (self_attn): SelfAttention(
    (q): Linear(in_features=1536, out_features=1536, bias=True)
    (k): Linear(in_features=1536, out_features=1536, bias=True)
    (v): Linear(in_features=1536, out_features=1536, bias=True)
    (o): Linear(in_features=1536, out_features=1536, bias=True)
    (norm_q): RMSNorm()
    (norm_k): RMSNorm()
    (attn): AttentionModule()
  )
  (cross_attn): CrossAttention(
    (q): Linear(in_features=1536, out_features=1536, bias=True)
    (k): Linear(in_features=1536, out_features=1536, bias=True)
    (v): Linear(in_features=1536, out_features=1536, bias=True)
    (o): Linear(in_features=1536, out_features=1536, bias=True)
    (norm_q): RMSNorm()
    (norm_k): RMSNorm()
    (attn): AttentionModule()
  )
  (norm1): LayerNorm((1536,), eps=1e-06, elementwise_affine=False)
  (norm2): LayerNorm((1536,), eps=1e-06, elementwise_affine=False)
  (norm3): LayerNorm((1536,), eps=1e-06, elementwise_affine=True)
  (ffn): Sequential(
    (0): Linear(in_features=1536, out_features=8960, bias=True)
    (1): GELU(approximate='tanh')
    (2): Linear(in_features=8960, out_features=1536, bias=True)
  )
  (gate): GateModule()
)
  Block 4: DiTBlock(
  (self_attn): SelfAttention(
    (q): Linear(in_features=1536, out_features=1536, bias=True)
    (k): Linear(in_features=1536, out_features=1536, bias=True)
    (v): Linear(in_features=1536, out_features=1536, bias=True)
    (o): Linear(in_features=1536, out_features=1536, bias=True)
    (norm_q): RMSNorm()
    (norm_k): RMSNorm()
    (attn): AttentionModule()
  )
  (cross_attn): CrossAttention(
    (q): Linear(in_features=1536, out_features=1536, bias=True)
    (k): Linear(in_features=1536, out_features=1536, bias=True)
    (v): Linear(in_features=1536, out_features=1536, bias=True)
    (o): Linear(in_features=1536, out_features=1536, bias=True)
    (norm_q): RMSNorm()
    (norm_k): RMSNorm()
    (attn): AttentionModule()
  )
  (norm1): LayerNorm((1536,), eps=1e-06, elementwise_affine=False)
  (norm2): LayerNorm((1536,), eps=1e-06, elementwise_affine=False)
  (norm3): LayerNorm((1536,), eps=1e-06, elementwise_affine=True)
  (ffn): Sequential(
    (0): Linear(in_features=1536, out_features=8960, bias=True)
    (1): GELU(approximate='tanh')
    (2): Linear(in_features=8960, out_features=1536, bias=True)
  )
  (gate): GateModule()
)
  Block 5: DiTBlock(
  (self_attn): SelfAttention(
    (q): Linear(in_features=1536, out_features=1536, bias=True)
    (k): Linear(in_features=1536, out_features=1536, bias=True)
    (v): Linear(in_features=1536, out_features=1536, bias=True)
    (o): Linear(in_features=1536, out_features=1536, bias=True)
    (norm_q): RMSNorm()
    (norm_k): RMSNorm()
    (attn): AttentionModule()
  )
  (cross_attn): CrossAttention(
    (q): Linear(in_features=1536, out_features=1536, bias=True)
    (k): Linear(in_features=1536, out_features=1536, bias=True)
    (v): Linear(in_features=1536, out_features=1536, bias=True)
    (o): Linear(in_features=1536, out_features=1536, bias=True)
    (norm_q): RMSNorm()
    (norm_k): RMSNorm()
    (attn): AttentionModule()
  )
  (norm1): LayerNorm((1536,), eps=1e-06, elementwise_affine=False)
  (norm2): LayerNorm((1536,), eps=1e-06, elementwise_affine=False)
  (norm3): LayerNorm((1536,), eps=1e-06, elementwise_affine=True)
  (ffn): Sequential(
    (0): Linear(in_features=1536, out_features=8960, bias=True)
    (1): GELU(approximate='tanh')
    (2): Linear(in_features=8960, out_features=1536, bias=True)
  )
  (gate): GateModule()
)
  Block 6: DiTBlock(
  (self_attn): SelfAttention(
    (q): Linear(in_features=1536, out_features=1536, bias=True)
    (k): Linear(in_features=1536, out_features=1536, bias=True)
    (v): Linear(in_features=1536, out_features=1536, bias=True)
    (o): Linear(in_features=1536, out_features=1536, bias=True)
    (norm_q): RMSNorm()
    (norm_k): RMSNorm()
    (attn): AttentionModule()
  )
  (cross_attn): CrossAttention(
    (q): Linear(in_features=1536, out_features=1536, bias=True)
    (k): Linear(in_features=1536, out_features=1536, bias=True)
    (v): Linear(in_features=1536, out_features=1536, bias=True)
    (o): Linear(in_features=1536, out_features=1536, bias=True)
    (norm_q): RMSNorm()
    (norm_k): RMSNorm()
    (attn): AttentionModule()
  )
  (norm1): LayerNorm((1536,), eps=1e-06, elementwise_affine=False)
  (norm2): LayerNorm((1536,), eps=1e-06, elementwise_affine=False)
  (norm3): LayerNorm((1536,), eps=1e-06, elementwise_affine=True)
  (ffn): Sequential(
    (0): Linear(in_features=1536, out_features=8960, bias=True)
    (1): GELU(approximate='tanh')
    (2): Linear(in_features=8960, out_features=1536, bias=True)
  )
  (gate): GateModule()
)
  Block 7: DiTBlock(
  (self_attn): SelfAttention(
    (q): Linear(in_features=1536, out_features=1536, bias=True)
    (k): Linear(in_features=1536, out_features=1536, bias=True)
    (v): Linear(in_features=1536, out_features=1536, bias=True)
    (o): Linear(in_features=1536, out_features=1536, bias=True)
    (norm_q): RMSNorm()
    (norm_k): RMSNorm()
    (attn): AttentionModule()
  )
  (cross_attn): CrossAttention(
    (q): Linear(in_features=1536, out_features=1536, bias=True)
    (k): Linear(in_features=1536, out_features=1536, bias=True)
    (v): Linear(in_features=1536, out_features=1536, bias=True)
    (o): Linear(in_features=1536, out_features=1536, bias=True)
    (norm_q): RMSNorm()
    (norm_k): RMSNorm()
    (attn): AttentionModule()
  )
  (norm1): LayerNorm((1536,), eps=1e-06, elementwise_affine=False)
  (norm2): LayerNorm((1536,), eps=1e-06, elementwise_affine=False)
  (norm3): LayerNorm((1536,), eps=1e-06, elementwise_affine=True)
  (ffn): Sequential(
    (0): Linear(in_features=1536, out_features=8960, bias=True)
    (1): GELU(approximate='tanh')
    (2): Linear(in_features=8960, out_features=1536, bias=True)
  )
  (gate): GateModule()
)
  Block 8: DiTBlock(
  (self_attn): SelfAttention(
    (q): Linear(in_features=1536, out_features=1536, bias=True)
    (k): Linear(in_features=1536, out_features=1536, bias=True)
    (v): Linear(in_features=1536, out_features=1536, bias=True)
    (o): Linear(in_features=1536, out_features=1536, bias=True)
    (norm_q): RMSNorm()
    (norm_k): RMSNorm()
    (attn): AttentionModule()
  )
  (cross_attn): CrossAttention(
    (q): Linear(in_features=1536, out_features=1536, bias=True)
    (k): Linear(in_features=1536, out_features=1536, bias=True)
    (v): Linear(in_features=1536, out_features=1536, bias=True)
    (o): Linear(in_features=1536, out_features=1536, bias=True)
    (norm_q): RMSNorm()
    (norm_k): RMSNorm()
    (attn): AttentionModule()
  )
  (norm1): LayerNorm((1536,), eps=1e-06, elementwise_affine=False)
  (norm2): LayerNorm((1536,), eps=1e-06, elementwise_affine=False)
  (norm3): LayerNorm((1536,), eps=1e-06, elementwise_affine=True)
  (ffn): Sequential(
    (0): Linear(in_features=1536, out_features=8960, bias=True)
    (1): GELU(approximate='tanh')
    (2): Linear(in_features=8960, out_features=1536, bias=True)
  )
  (gate): GateModule()
)
  Block 9: DiTBlock(
  (self_attn): SelfAttention(
    (q): Linear(in_features=1536, out_features=1536, bias=True)
    (k): Linear(in_features=1536, out_features=1536, bias=True)
    (v): Linear(in_features=1536, out_features=1536, bias=True)
    (o): Linear(in_features=1536, out_features=1536, bias=True)
    (norm_q): RMSNorm()
    (norm_k): RMSNorm()
    (attn): AttentionModule()
  )
  (cross_attn): CrossAttention(
    (q): Linear(in_features=1536, out_features=1536, bias=True)
    (k): Linear(in_features=1536, out_features=1536, bias=True)
    (v): Linear(in_features=1536, out_features=1536, bias=True)
    (o): Linear(in_features=1536, out_features=1536, bias=True)
    (norm_q): RMSNorm()
    (norm_k): RMSNorm()
    (attn): AttentionModule()
  )
  (norm1): LayerNorm((1536,), eps=1e-06, elementwise_affine=False)
  (norm2): LayerNorm((1536,), eps=1e-06, elementwise_affine=False)
  (norm3): LayerNorm((1536,), eps=1e-06, elementwise_affine=True)
  (ffn): Sequential(
    (0): Linear(in_features=1536, out_features=8960, bias=True)
    (1): GELU(approximate='tanh')
    (2): Linear(in_features=8960, out_features=1536, bias=True)
  )
  (gate): GateModule()
)
  Block 10: DiTBlock(
  (self_attn): SelfAttention(
    (q): Linear(in_features=1536, out_features=1536, bias=True)
    (k): Linear(in_features=1536, out_features=1536, bias=True)
    (v): Linear(in_features=1536, out_features=1536, bias=True)
    (o): Linear(in_features=1536, out_features=1536, bias=True)
    (norm_q): RMSNorm()
    (norm_k): RMSNorm()
    (attn): AttentionModule()
  )
  (cross_attn): CrossAttention(
    (q): Linear(in_features=1536, out_features=1536, bias=True)
    (k): Linear(in_features=1536, out_features=1536, bias=True)
    (v): Linear(in_features=1536, out_features=1536, bias=True)
    (o): Linear(in_features=1536, out_features=1536, bias=True)
    (norm_q): RMSNorm()
    (norm_k): RMSNorm()
    (attn): AttentionModule()
  )
  (norm1): LayerNorm((1536,), eps=1e-06, elementwise_affine=False)
  (norm2): LayerNorm((1536,), eps=1e-06, elementwise_affine=False)
  (norm3): LayerNorm((1536,), eps=1e-06, elementwise_affine=True)
  (ffn): Sequential(
    (0): Linear(in_features=1536, out_features=8960, bias=True)
    (1): GELU(approximate='tanh')
    (2): Linear(in_features=8960, out_features=1536, bias=True)
  )
  (gate): GateModule()
)
  Block 11: DiTBlock(
  (self_attn): SelfAttention(
    (q): Linear(in_features=1536, out_features=1536, bias=True)
    (k): Linear(in_features=1536, out_features=1536, bias=True)
    (v): Linear(in_features=1536, out_features=1536, bias=True)
    (o): Linear(in_features=1536, out_features=1536, bias=True)
    (norm_q): RMSNorm()
    (norm_k): RMSNorm()
    (attn): AttentionModule()
  )
  (cross_attn): CrossAttention(
    (q): Linear(in_features=1536, out_features=1536, bias=True)
    (k): Linear(in_features=1536, out_features=1536, bias=True)
    (v): Linear(in_features=1536, out_features=1536, bias=True)
    (o): Linear(in_features=1536, out_features=1536, bias=True)
    (norm_q): RMSNorm()
    (norm_k): RMSNorm()
    (attn): AttentionModule()
  )
  (norm1): LayerNorm((1536,), eps=1e-06, elementwise_affine=False)
  (norm2): LayerNorm((1536,), eps=1e-06, elementwise_affine=False)
  (norm3): LayerNorm((1536,), eps=1e-06, elementwise_affine=True)
  (ffn): Sequential(
    (0): Linear(in_features=1536, out_features=8960, bias=True)
    (1): GELU(approximate='tanh')
    (2): Linear(in_features=8960, out_features=1536, bias=True)
  )
  (gate): GateModule()
)
  Block 12: DiTBlock(
  (self_attn): SelfAttention(
    (q): Linear(in_features=1536, out_features=1536, bias=True)
    (k): Linear(in_features=1536, out_features=1536, bias=True)
    (v): Linear(in_features=1536, out_features=1536, bias=True)
    (o): Linear(in_features=1536, out_features=1536, bias=True)
    (norm_q): RMSNorm()
    (norm_k): RMSNorm()
    (attn): AttentionModule()
  )
  (cross_attn): CrossAttention(
    (q): Linear(in_features=1536, out_features=1536, bias=True)
    (k): Linear(in_features=1536, out_features=1536, bias=True)
    (v): Linear(in_features=1536, out_features=1536, bias=True)
    (o): Linear(in_features=1536, out_features=1536, bias=True)
    (norm_q): RMSNorm()
    (norm_k): RMSNorm()
    (attn): AttentionModule()
  )
  (norm1): LayerNorm((1536,), eps=1e-06, elementwise_affine=False)
  (norm2): LayerNorm((1536,), eps=1e-06, elementwise_affine=False)
  (norm3): LayerNorm((1536,), eps=1e-06, elementwise_affine=True)
  (ffn): Sequential(
    (0): Linear(in_features=1536, out_features=8960, bias=True)
    (1): GELU(approximate='tanh')
    (2): Linear(in_features=8960, out_features=1536, bias=True)
  )
  (gate): GateModule()
)
  Block 13: DiTBlock(
  (self_attn): SelfAttention(
    (q): Linear(in_features=1536, out_features=1536, bias=True)
    (k): Linear(in_features=1536, out_features=1536, bias=True)
    (v): Linear(in_features=1536, out_features=1536, bias=True)
    (o): Linear(in_features=1536, out_features=1536, bias=True)
    (norm_q): RMSNorm()
    (norm_k): RMSNorm()
    (attn): AttentionModule()
  )
  (cross_attn): CrossAttention(
    (q): Linear(in_features=1536, out_features=1536, bias=True)
    (k): Linear(in_features=1536, out_features=1536, bias=True)
    (v): Linear(in_features=1536, out_features=1536, bias=True)
    (o): Linear(in_features=1536, out_features=1536, bias=True)
    (norm_q): RMSNorm()
    (norm_k): RMSNorm()
    (attn): AttentionModule()
  )
  (norm1): LayerNorm((1536,), eps=1e-06, elementwise_affine=False)
  (norm2): LayerNorm((1536,), eps=1e-06, elementwise_affine=False)
  (norm3): LayerNorm((1536,), eps=1e-06, elementwise_affine=True)
  (ffn): Sequential(
    (0): Linear(in_features=1536, out_features=8960, bias=True)
    (1): GELU(approximate='tanh')
    (2): Linear(in_features=8960, out_features=1536, bias=True)
  )
  (gate): GateModule()
)
  Block 14: DiTBlock(
  (self_attn): SelfAttention(
    (q): Linear(in_features=1536, out_features=1536, bias=True)
    (k): Linear(in_features=1536, out_features=1536, bias=True)
    (v): Linear(in_features=1536, out_features=1536, bias=True)
    (o): Linear(in_features=1536, out_features=1536, bias=True)
    (norm_q): RMSNorm()
    (norm_k): RMSNorm()
    (attn): AttentionModule()
  )
  (cross_attn): CrossAttention(
    (q): Linear(in_features=1536, out_features=1536, bias=True)
    (k): Linear(in_features=1536, out_features=1536, bias=True)
    (v): Linear(in_features=1536, out_features=1536, bias=True)
    (o): Linear(in_features=1536, out_features=1536, bias=True)
    (norm_q): RMSNorm()
    (norm_k): RMSNorm()
    (attn): AttentionModule()
  )
  (norm1): LayerNorm((1536,), eps=1e-06, elementwise_affine=False)
  (norm2): LayerNorm((1536,), eps=1e-06, elementwise_affine=False)
  (norm3): LayerNorm((1536,), eps=1e-06, elementwise_affine=True)
  (ffn): Sequential(
    (0): Linear(in_features=1536, out_features=8960, bias=True)
    (1): GELU(approximate='tanh')
    (2): Linear(in_features=8960, out_features=1536, bias=True)
  )
  (gate): GateModule()
)
  Block 15: DiTBlock(
  (self_attn): SelfAttention(
    (q): Linear(in_features=1536, out_features=1536, bias=True)
    (k): Linear(in_features=1536, out_features=1536, bias=True)
    (v): Linear(in_features=1536, out_features=1536, bias=True)
    (o): Linear(in_features=1536, out_features=1536, bias=True)
    (norm_q): RMSNorm()
    (norm_k): RMSNorm()
    (attn): AttentionModule()
  )
  (cross_attn): CrossAttention(
    (q): Linear(in_features=1536, out_features=1536, bias=True)
    (k): Linear(in_features=1536, out_features=1536, bias=True)
    (v): Linear(in_features=1536, out_features=1536, bias=True)
    (o): Linear(in_features=1536, out_features=1536, bias=True)
    (norm_q): RMSNorm()
    (norm_k): RMSNorm()
    (attn): AttentionModule()
  )
  (norm1): LayerNorm((1536,), eps=1e-06, elementwise_affine=False)
  (norm2): LayerNorm((1536,), eps=1e-06, elementwise_affine=False)
  (norm3): LayerNorm((1536,), eps=1e-06, elementwise_affine=True)
  (ffn): Sequential(
    (0): Linear(in_features=1536, out_features=8960, bias=True)
    (1): GELU(approximate='tanh')
    (2): Linear(in_features=8960, out_features=1536, bias=True)
  )
  (gate): GateModule()
)
  Block 16: DiTBlock(
  (self_attn): SelfAttention(
    (q): Linear(in_features=1536, out_features=1536, bias=True)
    (k): Linear(in_features=1536, out_features=1536, bias=True)
    (v): Linear(in_features=1536, out_features=1536, bias=True)
    (o): Linear(in_features=1536, out_features=1536, bias=True)
    (norm_q): RMSNorm()
    (norm_k): RMSNorm()
    (attn): AttentionModule()
  )
  (cross_attn): CrossAttention(
    (q): Linear(in_features=1536, out_features=1536, bias=True)
    (k): Linear(in_features=1536, out_features=1536, bias=True)
    (v): Linear(in_features=1536, out_features=1536, bias=True)
    (o): Linear(in_features=1536, out_features=1536, bias=True)
    (norm_q): RMSNorm()
    (norm_k): RMSNorm()
    (attn): AttentionModule()
  )
  (norm1): LayerNorm((1536,), eps=1e-06, elementwise_affine=False)
  (norm2): LayerNorm((1536,), eps=1e-06, elementwise_affine=False)
  (norm3): LayerNorm((1536,), eps=1e-06, elementwise_affine=True)
  (ffn): Sequential(
    (0): Linear(in_features=1536, out_features=8960, bias=True)
    (1): GELU(approximate='tanh')
    (2): Linear(in_features=8960, out_features=1536, bias=True)
  )
  (gate): GateModule()
)
  Block 17: DiTBlock(
  (self_attn): SelfAttention(
    (q): Linear(in_features=1536, out_features=1536, bias=True)
    (k): Linear(in_features=1536, out_features=1536, bias=True)
    (v): Linear(in_features=1536, out_features=1536, bias=True)
    (o): Linear(in_features=1536, out_features=1536, bias=True)
    (norm_q): RMSNorm()
    (norm_k): RMSNorm()
    (attn): AttentionModule()
  )
  (cross_attn): CrossAttention(
    (q): Linear(in_features=1536, out_features=1536, bias=True)
    (k): Linear(in_features=1536, out_features=1536, bias=True)
    (v): Linear(in_features=1536, out_features=1536, bias=True)
    (o): Linear(in_features=1536, out_features=1536, bias=True)
    (norm_q): RMSNorm()
    (norm_k): RMSNorm()
    (attn): AttentionModule()
  )
  (norm1): LayerNorm((1536,), eps=1e-06, elementwise_affine=False)
  (norm2): LayerNorm((1536,), eps=1e-06, elementwise_affine=False)
  (norm3): LayerNorm((1536,), eps=1e-06, elementwise_affine=True)
  (ffn): Sequential(
    (0): Linear(in_features=1536, out_features=8960, bias=True)
    (1): GELU(approximate='tanh')
    (2): Linear(in_features=8960, out_features=1536, bias=True)
  )
  (gate): GateModule()
)
  Block 18: DiTBlock(
  (self_attn): SelfAttention(
    (q): Linear(in_features=1536, out_features=1536, bias=True)
    (k): Linear(in_features=1536, out_features=1536, bias=True)
    (v): Linear(in_features=1536, out_features=1536, bias=True)
    (o): Linear(in_features=1536, out_features=1536, bias=True)
    (norm_q): RMSNorm()
    (norm_k): RMSNorm()
    (attn): AttentionModule()
  )
  (cross_attn): CrossAttention(
    (q): Linear(in_features=1536, out_features=1536, bias=True)
    (k): Linear(in_features=1536, out_features=1536, bias=True)
    (v): Linear(in_features=1536, out_features=1536, bias=True)
    (o): Linear(in_features=1536, out_features=1536, bias=True)
    (norm_q): RMSNorm()
    (norm_k): RMSNorm()
    (attn): AttentionModule()
  )
  (norm1): LayerNorm((1536,), eps=1e-06, elementwise_affine=False)
  (norm2): LayerNorm((1536,), eps=1e-06, elementwise_affine=False)
  (norm3): LayerNorm((1536,), eps=1e-06, elementwise_affine=True)
  (ffn): Sequential(
    (0): Linear(in_features=1536, out_features=8960, bias=True)
    (1): GELU(approximate='tanh')
    (2): Linear(in_features=8960, out_features=1536, bias=True)
  )
  (gate): GateModule()
)
  Block 19: DiTBlock(
  (self_attn): SelfAttention(
    (q): Linear(in_features=1536, out_features=1536, bias=True)
    (k): Linear(in_features=1536, out_features=1536, bias=True)
    (v): Linear(in_features=1536, out_features=1536, bias=True)
    (o): Linear(in_features=1536, out_features=1536, bias=True)
    (norm_q): RMSNorm()
    (norm_k): RMSNorm()
    (attn): AttentionModule()
  )
  (cross_attn): CrossAttention(
    (q): Linear(in_features=1536, out_features=1536, bias=True)
    (k): Linear(in_features=1536, out_features=1536, bias=True)
    (v): Linear(in_features=1536, out_features=1536, bias=True)
    (o): Linear(in_features=1536, out_features=1536, bias=True)
    (norm_q): RMSNorm()
    (norm_k): RMSNorm()
    (attn): AttentionModule()
  )
  (norm1): LayerNorm((1536,), eps=1e-06, elementwise_affine=False)
  (norm2): LayerNorm((1536,), eps=1e-06, elementwise_affine=False)
  (norm3): LayerNorm((1536,), eps=1e-06, elementwise_affine=True)
  (ffn): Sequential(
    (0): Linear(in_features=1536, out_features=8960, bias=True)
    (1): GELU(approximate='tanh')
    (2): Linear(in_features=8960, out_features=1536, bias=True)
  )
  (gate): GateModule()
)
  Block 20: DiTBlock(
  (self_attn): SelfAttention(
    (q): Linear(in_features=1536, out_features=1536, bias=True)
    (k): Linear(in_features=1536, out_features=1536, bias=True)
    (v): Linear(in_features=1536, out_features=1536, bias=True)
    (o): Linear(in_features=1536, out_features=1536, bias=True)
    (norm_q): RMSNorm()
    (norm_k): RMSNorm()
    (attn): AttentionModule()
  )
  (cross_attn): CrossAttention(
    (q): Linear(in_features=1536, out_features=1536, bias=True)
    (k): Linear(in_features=1536, out_features=1536, bias=True)
    (v): Linear(in_features=1536, out_features=1536, bias=True)
    (o): Linear(in_features=1536, out_features=1536, bias=True)
    (norm_q): RMSNorm()
    (norm_k): RMSNorm()
    (attn): AttentionModule()
  )
  (norm1): LayerNorm((1536,), eps=1e-06, elementwise_affine=False)
  (norm2): LayerNorm((1536,), eps=1e-06, elementwise_affine=False)
  (norm3): LayerNorm((1536,), eps=1e-06, elementwise_affine=True)
  (ffn): Sequential(
    (0): Linear(in_features=1536, out_features=8960, bias=True)
    (1): GELU(approximate='tanh')
    (2): Linear(in_features=8960, out_features=1536, bias=True)
  )
  (gate): GateModule()
)
  Block 21: DiTBlock(
  (self_attn): SelfAttention(
    (q): Linear(in_features=1536, out_features=1536, bias=True)
    (k): Linear(in_features=1536, out_features=1536, bias=True)
    (v): Linear(in_features=1536, out_features=1536, bias=True)
    (o): Linear(in_features=1536, out_features=1536, bias=True)
    (norm_q): RMSNorm()
    (norm_k): RMSNorm()
    (attn): AttentionModule()
  )
  (cross_attn): CrossAttention(
    (q): Linear(in_features=1536, out_features=1536, bias=True)
    (k): Linear(in_features=1536, out_features=1536, bias=True)
    (v): Linear(in_features=1536, out_features=1536, bias=True)
    (o): Linear(in_features=1536, out_features=1536, bias=True)
    (norm_q): RMSNorm()
    (norm_k): RMSNorm()
    (attn): AttentionModule()
  )
  (norm1): LayerNorm((1536,), eps=1e-06, elementwise_affine=False)
  (norm2): LayerNorm((1536,), eps=1e-06, elementwise_affine=False)
  (norm3): LayerNorm((1536,), eps=1e-06, elementwise_affine=True)
  (ffn): Sequential(
    (0): Linear(in_features=1536, out_features=8960, bias=True)
    (1): GELU(approximate='tanh')
    (2): Linear(in_features=8960, out_features=1536, bias=True)
  )
  (gate): GateModule()
)
  Block 22: DiTBlock(
  (self_attn): SelfAttention(
    (q): Linear(in_features=1536, out_features=1536, bias=True)
    (k): Linear(in_features=1536, out_features=1536, bias=True)
    (v): Linear(in_features=1536, out_features=1536, bias=True)
    (o): Linear(in_features=1536, out_features=1536, bias=True)
    (norm_q): RMSNorm()
    (norm_k): RMSNorm()
    (attn): AttentionModule()
  )
  (cross_attn): CrossAttention(
    (q): Linear(in_features=1536, out_features=1536, bias=True)
    (k): Linear(in_features=1536, out_features=1536, bias=True)
    (v): Linear(in_features=1536, out_features=1536, bias=True)
    (o): Linear(in_features=1536, out_features=1536, bias=True)
    (norm_q): RMSNorm()
    (norm_k): RMSNorm()
    (attn): AttentionModule()
  )
  (norm1): LayerNorm((1536,), eps=1e-06, elementwise_affine=False)
  (norm2): LayerNorm((1536,), eps=1e-06, elementwise_affine=False)
  (norm3): LayerNorm((1536,), eps=1e-06, elementwise_affine=True)
  (ffn): Sequential(
    (0): Linear(in_features=1536, out_features=8960, bias=True)
    (1): GELU(approximate='tanh')
    (2): Linear(in_features=8960, out_features=1536, bias=True)
  )
  (gate): GateModule()
)
  Block 23: DiTBlock(
  (self_attn): SelfAttention(
    (q): Linear(in_features=1536, out_features=1536, bias=True)
    (k): Linear(in_features=1536, out_features=1536, bias=True)
    (v): Linear(in_features=1536, out_features=1536, bias=True)
    (o): Linear(in_features=1536, out_features=1536, bias=True)
    (norm_q): RMSNorm()
    (norm_k): RMSNorm()
    (attn): AttentionModule()
  )
  (cross_attn): CrossAttention(
    (q): Linear(in_features=1536, out_features=1536, bias=True)
    (k): Linear(in_features=1536, out_features=1536, bias=True)
    (v): Linear(in_features=1536, out_features=1536, bias=True)
    (o): Linear(in_features=1536, out_features=1536, bias=True)
    (norm_q): RMSNorm()
    (norm_k): RMSNorm()
    (attn): AttentionModule()
  )
  (norm1): LayerNorm((1536,), eps=1e-06, elementwise_affine=False)
  (norm2): LayerNorm((1536,), eps=1e-06, elementwise_affine=False)
  (norm3): LayerNorm((1536,), eps=1e-06, elementwise_affine=True)
  (ffn): Sequential(
    (0): Linear(in_features=1536, out_features=8960, bias=True)
    (1): GELU(approximate='tanh')
    (2): Linear(in_features=8960, out_features=1536, bias=True)
  )
  (gate): GateModule()
)
  Block 24: DiTBlock(
  (self_attn): SelfAttention(
    (q): Linear(in_features=1536, out_features=1536, bias=True)
    (k): Linear(in_features=1536, out_features=1536, bias=True)
    (v): Linear(in_features=1536, out_features=1536, bias=True)
    (o): Linear(in_features=1536, out_features=1536, bias=True)
    (norm_q): RMSNorm()
    (norm_k): RMSNorm()
    (attn): AttentionModule()
  )
  (cross_attn): CrossAttention(
    (q): Linear(in_features=1536, out_features=1536, bias=True)
    (k): Linear(in_features=1536, out_features=1536, bias=True)
    (v): Linear(in_features=1536, out_features=1536, bias=True)
    (o): Linear(in_features=1536, out_features=1536, bias=True)
    (norm_q): RMSNorm()
    (norm_k): RMSNorm()
    (attn): AttentionModule()
  )
  (norm1): LayerNorm((1536,), eps=1e-06, elementwise_affine=False)
  (norm2): LayerNorm((1536,), eps=1e-06, elementwise_affine=False)
  (norm3): LayerNorm((1536,), eps=1e-06, elementwise_affine=True)
  (ffn): Sequential(
    (0): Linear(in_features=1536, out_features=8960, bias=True)
    (1): GELU(approximate='tanh')
    (2): Linear(in_features=8960, out_features=1536, bias=True)
  )
  (gate): GateModule()
)
  Block 25: DiTBlock(
  (self_attn): SelfAttention(
    (q): Linear(in_features=1536, out_features=1536, bias=True)
    (k): Linear(in_features=1536, out_features=1536, bias=True)
    (v): Linear(in_features=1536, out_features=1536, bias=True)
    (o): Linear(in_features=1536, out_features=1536, bias=True)
    (norm_q): RMSNorm()
    (norm_k): RMSNorm()
    (attn): AttentionModule()
  )
  (cross_attn): CrossAttention(
    (q): Linear(in_features=1536, out_features=1536, bias=True)
    (k): Linear(in_features=1536, out_features=1536, bias=True)
    (v): Linear(in_features=1536, out_features=1536, bias=True)
    (o): Linear(in_features=1536, out_features=1536, bias=True)
    (norm_q): RMSNorm()
    (norm_k): RMSNorm()
    (attn): AttentionModule()
  )
  (norm1): LayerNorm((1536,), eps=1e-06, elementwise_affine=False)
  (norm2): LayerNorm((1536,), eps=1e-06, elementwise_affine=False)
  (norm3): LayerNorm((1536,), eps=1e-06, elementwise_affine=True)
  (ffn): Sequential(
    (0): Linear(in_features=1536, out_features=8960, bias=True)
    (1): GELU(approximate='tanh')
    (2): Linear(in_features=8960, out_features=1536, bias=True)
  )
  (gate): GateModule()
)
  Block 26: DiTBlock(
  (self_attn): SelfAttention(
    (q): Linear(in_features=1536, out_features=1536, bias=True)
    (k): Linear(in_features=1536, out_features=1536, bias=True)
    (v): Linear(in_features=1536, out_features=1536, bias=True)
    (o): Linear(in_features=1536, out_features=1536, bias=True)
    (norm_q): RMSNorm()
    (norm_k): RMSNorm()
    (attn): AttentionModule()
  )
  (cross_attn): CrossAttention(
    (q): Linear(in_features=1536, out_features=1536, bias=True)
    (k): Linear(in_features=1536, out_features=1536, bias=True)
    (v): Linear(in_features=1536, out_features=1536, bias=True)
    (o): Linear(in_features=1536, out_features=1536, bias=True)
    (norm_q): RMSNorm()
    (norm_k): RMSNorm()
    (attn): AttentionModule()
  )
  (norm1): LayerNorm((1536,), eps=1e-06, elementwise_affine=False)
  (norm2): LayerNorm((1536,), eps=1e-06, elementwise_affine=False)
  (norm3): LayerNorm((1536,), eps=1e-06, elementwise_affine=True)
  (ffn): Sequential(
    (0): Linear(in_features=1536, out_features=8960, bias=True)
    (1): GELU(approximate='tanh')
    (2): Linear(in_features=8960, out_features=1536, bias=True)
  )
  (gate): GateModule()
)
  Block 27: DiTBlock(
  (self_attn): SelfAttention(
    (q): Linear(in_features=1536, out_features=1536, bias=True)
    (k): Linear(in_features=1536, out_features=1536, bias=True)
    (v): Linear(in_features=1536, out_features=1536, bias=True)
    (o): Linear(in_features=1536, out_features=1536, bias=True)
    (norm_q): RMSNorm()
    (norm_k): RMSNorm()
    (attn): AttentionModule()
  )
  (cross_attn): CrossAttention(
    (q): Linear(in_features=1536, out_features=1536, bias=True)
    (k): Linear(in_features=1536, out_features=1536, bias=True)
    (v): Linear(in_features=1536, out_features=1536, bias=True)
    (o): Linear(in_features=1536, out_features=1536, bias=True)
    (norm_q): RMSNorm()
    (norm_k): RMSNorm()
    (attn): AttentionModule()
  )
  (norm1): LayerNorm((1536,), eps=1e-06, elementwise_affine=False)
  (norm2): LayerNorm((1536,), eps=1e-06, elementwise_affine=False)
  (norm3): LayerNorm((1536,), eps=1e-06, elementwise_affine=True)
  (ffn): Sequential(
    (0): Linear(in_features=1536, out_features=8960, bias=True)
    (1): GELU(approximate='tanh')
    (2): Linear(in_features=8960, out_features=1536, bias=True)
  )
  (gate): GateModule()
)
  Block 28: DiTBlock(
  (self_attn): SelfAttention(
    (q): Linear(in_features=1536, out_features=1536, bias=True)
    (k): Linear(in_features=1536, out_features=1536, bias=True)
    (v): Linear(in_features=1536, out_features=1536, bias=True)
    (o): Linear(in_features=1536, out_features=1536, bias=True)
    (norm_q): RMSNorm()
    (norm_k): RMSNorm()
    (attn): AttentionModule()
  )
  (cross_attn): CrossAttention(
    (q): Linear(in_features=1536, out_features=1536, bias=True)
    (k): Linear(in_features=1536, out_features=1536, bias=True)
    (v): Linear(in_features=1536, out_features=1536, bias=True)
    (o): Linear(in_features=1536, out_features=1536, bias=True)
    (norm_q): RMSNorm()
    (norm_k): RMSNorm()
    (attn): AttentionModule()
  )
  (norm1): LayerNorm((1536,), eps=1e-06, elementwise_affine=False)
  (norm2): LayerNorm((1536,), eps=1e-06, elementwise_affine=False)
  (norm3): LayerNorm((1536,), eps=1e-06, elementwise_affine=True)
  (ffn): Sequential(
    (0): Linear(in_features=1536, out_features=8960, bias=True)
    (1): GELU(approximate='tanh')
    (2): Linear(in_features=8960, out_features=1536, bias=True)
  )
  (gate): GateModule()
)
  Block 29: DiTBlock(
  (self_attn): SelfAttention(
    (q): Linear(in_features=1536, out_features=1536, bias=True)
    (k): Linear(in_features=1536, out_features=1536, bias=True)
    (v): Linear(in_features=1536, out_features=1536, bias=True)
    (o): Linear(in_features=1536, out_features=1536, bias=True)
    (norm_q): RMSNorm()
    (norm_k): RMSNorm()
    (attn): AttentionModule()
  )
  (cross_attn): CrossAttention(
    (q): Linear(in_features=1536, out_features=1536, bias=True)
    (k): Linear(in_features=1536, out_features=1536, bias=True)
    (v): Linear(in_features=1536, out_features=1536, bias=True)
    (o): Linear(in_features=1536, out_features=1536, bias=True)
    (norm_q): RMSNorm()
    (norm_k): RMSNorm()
    (attn): AttentionModule()
  )
  (norm1): LayerNorm((1536,), eps=1e-06, elementwise_affine=False)
  (norm2): LayerNorm((1536,), eps=1e-06, elementwise_affine=False)
  (norm3): LayerNorm((1536,), eps=1e-06, elementwise_affine=True)
  (ffn): Sequential(
    (0): Linear(in_features=1536, out_features=8960, bias=True)
    (1): GELU(approximate='tanh')
    (2): Linear(in_features=8960, out_features=1536, bias=True)
  )
  (gate): GateModule()
)
[WanModel] head: Head(
  (norm): LayerNorm((1536,), eps=1e-06, elementwise_affine=False)
  (head): Linear(in_features=1536, out_features=64, bias=True)
)
[WanModel] RoPE freqs shape: [torch.Size([1024, 22]), torch.Size([1024, 21]), torch.Size([1024, 21])]
[WanModel] audio_proj: AudioPack(
  (proj): Linear(in_features=43008, out_features=32, bias=True)
  (norm_out): LayerNorm((32,), eps=1e-05, elementwise_affine=True)
)
[WanModel] audio_cond_projs:
  Audio Cond Proj 0: Linear(in_features=32, out_features=1536, bias=True)
  Audio Cond Proj 1: Linear(in_features=32, out_features=1536, bias=True)
  Audio Cond Proj 2: Linear(in_features=32, out_features=1536, bias=True)
  Audio Cond Proj 3: Linear(in_features=32, out_features=1536, bias=True)
  Audio Cond Proj 4: Linear(in_features=32, out_features=1536, bias=True)
…
  Audio Cond Proj 13: Linear(in_features=32, out_features=1536, bias=True)
[Truncate] patch_embedding.weight: ckpt torch.Size([1536, 16, 1, 2, 2]) -> model torch.Size([1536, 33, 1, 2, 2])
    The following models are loaded: ['wan_video_dit'].
Loading models from: pretrained_models/Wan2.1-T2V-1.3B/models_t5_umt5-xxl-enc-bf16.pth
    model_name: wan_video_text_encoder model_class: WanTextEncoder
[WanTextEncoder] token_embedding: Embedding(256384, 4096)
[WanTextEncoder] dropout: Dropout(p=0.1, inplace=False)
[WanTextEncoder] blocks (T5SelfAttention):
  Block 0: T5SelfAttention(
  (norm1): T5LayerNorm()
  (attn): T5Attention(
    (q): Linear(in_features=4096, out_features=4096, bias=False)
    (k): Linear(in_features=4096, out_features=4096, bias=False)
    (v): Linear(in_features=4096, out_features=4096, bias=False)
    (o): Linear(in_features=4096, out_features=4096, bias=False)
    (dropout): Dropout(p=0.1, inplace=False)
  )
  (norm2): T5LayerNorm()
  (ffn): T5FeedForward(
    (gate): Sequential(
      (0): Linear(in_features=4096, out_features=10240, bias=False)
      (1): GELU()
    )
    (fc1): Linear(in_features=4096, out_features=10240, bias=False)
    (fc2): Linear(in_features=10240, out_features=4096, bias=False)
    (dropout): Dropout(p=0.1, inplace=False)
  )
  (pos_embedding): T5RelativeEmbedding(
    (embedding): Embedding(32, 64)
  )
)
  Block 1: T5SelfAttention(
  (norm1): T5LayerNorm()
  (attn): T5Attention(
    (q): Linear(in_features=4096, out_features=4096, bias=False)
    (k): Linear(in_features=4096, out_features=4096, bias=False)
    (v): Linear(in_features=4096, out_features=4096, bias=False)
    (o): Linear(in_features=4096, out_features=4096, bias=False)
    (dropout): Dropout(p=0.1, inplace=False)
  )
  (norm2): T5LayerNorm()
  (ffn): T5FeedForward(
    (gate): Sequential(
      (0): Linear(in_features=4096, out_features=10240, bias=False)
      (1): GELU()
    )
    (fc1): Linear(in_features=4096, out_features=10240, bias=False)
    (fc2): Linear(in_features=10240, out_features=4096, bias=False)
    (dropout): Dropout(p=0.1, inplace=False)
  )
  (pos_embedding): T5RelativeEmbedding(
    (embedding): Embedding(32, 64)
  )
)
  Block 2: T5SelfAttention(
  (norm1): T5LayerNorm()
  (attn): T5Attention(
    (q): Linear(in_features=4096, out_features=4096, bias=False)
    (k): Linear(in_features=4096, out_features=4096, bias=False)
    (v): Linear(in_features=4096, out_features=4096, bias=False)
    (o): Linear(in_features=4096, out_features=4096, bias=False)
    (dropout): Dropout(p=0.1, inplace=False)
  )
  (norm2): T5LayerNorm()
  (ffn): T5FeedForward(
    (gate): Sequential(
      (0): Linear(in_features=4096, out_features=10240, bias=False)
      (1): GELU()
    )
    (fc1): Linear(in_features=4096, out_features=10240, bias=False)
    (fc2): Linear(in_features=10240, out_features=4096, bias=False)
    (dropout): Dropout(p=0.1, inplace=False)
  )
  (pos_embedding): T5RelativeEmbedding(
    (embedding): Embedding(32, 64)
  )
)
  Block 3: T5SelfAttention(
  (norm1): T5LayerNorm()
  (attn): T5Attention(
    (q): Linear(in_features=4096, out_features=4096, bias=False)
    (k): Linear(in_features=4096, out_features=4096, bias=False)
    (v): Linear(in_features=4096, out_features=4096, bias=False)
    (o): Linear(in_features=4096, out_features=4096, bias=False)
    (dropout): Dropout(p=0.1, inplace=False)
  )
  (norm2): T5LayerNorm()
  (ffn): T5FeedForward(
    (gate): Sequential(
      (0): Linear(in_features=4096, out_features=10240, bias=False)
      (1): GELU()
    )
    (fc1): Linear(in_features=4096, out_features=10240, bias=False)
    (fc2): Linear(in_features=10240, out_features=4096, bias=False)
    (dropout): Dropout(p=0.1, inplace=False)
  )
  (pos_embedding): T5RelativeEmbedding(
    (embedding): Embedding(32, 64)
  )
)
  Block 4: T5SelfAttention(
  (norm1): T5LayerNorm()
  (attn): T5Attention(
    (q): Linear(in_features=4096, out_features=4096, bias=False)
    (k): Linear(in_features=4096, out_features=4096, bias=False)
    (v): Linear(in_features=4096, out_features=4096, bias=False)
    (o): Linear(in_features=4096, out_features=4096, bias=False)
    (dropout): Dropout(p=0.1, inplace=False)
  )
  (norm2): T5LayerNorm()
  (ffn): T5FeedForward(
    (gate): Sequential(
      (0): Linear(in_features=4096, out_features=10240, bias=False)
      (1): GELU()
    )
    (fc1): Linear(in_features=4096, out_features=10240, bias=False)
    (fc2): Linear(in_features=10240, out_features=4096, bias=False)
    (dropout): Dropout(p=0.1, inplace=False)
  )
  (pos_embedding): T5RelativeEmbedding(
    (embedding): Embedding(32, 64)
  )
)
  Block 5: T5SelfAttention(
  (norm1): T5LayerNorm()
  (attn): T5Attention(
    (q): Linear(in_features=4096, out_features=4096, bias=False)
    (k): Linear(in_features=4096, out_features=4096, bias=False)
    (v): Linear(in_features=4096, out_features=4096, bias=False)
    (o): Linear(in_features=4096, out_features=4096, bias=False)
    (dropout): Dropout(p=0.1, inplace=False)
  )
  (norm2): T5LayerNorm()
  (ffn): T5FeedForward(
    (gate): Sequential(
      (0): Linear(in_features=4096, out_features=10240, bias=False)
      (1): GELU()
    )
    (fc1): Linear(in_features=4096, out_features=10240, bias=False)
    (fc2): Linear(in_features=10240, out_features=4096, bias=False)
    (dropout): Dropout(p=0.1, inplace=False)
  )
  (pos_embedding): T5RelativeEmbedding(
    (embedding): Embedding(32, 64)
  )
)
  Block 6: T5SelfAttention(
  (norm1): T5LayerNorm()
  (attn): T5Attention(
    (q): Linear(in_features=4096, out_features=4096, bias=False)
    (k): Linear(in_features=4096, out_features=4096, bias=False)
    (v): Linear(in_features=4096, out_features=4096, bias=False)
    (o): Linear(in_features=4096, out_features=4096, bias=False)
    (dropout): Dropout(p=0.1, inplace=False)
  )
  (norm2): T5LayerNorm()
  (ffn): T5FeedForward(
    (gate): Sequential(
      (0): Linear(in_features=4096, out_features=10240, bias=False)
      (1): GELU()
    )
    (fc1): Linear(in_features=4096, out_features=10240, bias=False)
    (fc2): Linear(in_features=10240, out_features=4096, bias=False)
    (dropout): Dropout(p=0.1, inplace=False)
  )
  (pos_embedding): T5RelativeEmbedding(
    (embedding): Embedding(32, 64)
  )
)
  Block 7: T5SelfAttention(
  (norm1): T5LayerNorm()
  (attn): T5Attention(
    (q): Linear(in_features=4096, out_features=4096, bias=False)
    (k): Linear(in_features=4096, out_features=4096, bias=False)
    (v): Linear(in_features=4096, out_features=4096, bias=False)
    (o): Linear(in_features=4096, out_features=4096, bias=False)
    (dropout): Dropout(p=0.1, inplace=False)
  )
  (norm2): T5LayerNorm()
  (ffn): T5FeedForward(
    (gate): Sequential(
      (0): Linear(in_features=4096, out_features=10240, bias=False)
      (1): GELU()
    )
    (fc1): Linear(in_features=4096, out_features=10240, bias=False)
    (fc2): Linear(in_features=10240, out_features=4096, bias=False)
    (dropout): Dropout(p=0.1, inplace=False)
  )
  (pos_embedding): T5RelativeEmbedding(
    (embedding): Embedding(32, 64)
  )
)
  Block 8: T5SelfAttention(
  (norm1): T5LayerNorm()
  (attn): T5Attention(
    (q): Linear(in_features=4096, out_features=4096, bias=False)
    (k): Linear(in_features=4096, out_features=4096, bias=False)
    (v): Linear(in_features=4096, out_features=4096, bias=False)
    (o): Linear(in_features=4096, out_features=4096, bias=False)
    (dropout): Dropout(p=0.1, inplace=False)
  )
  (norm2): T5LayerNorm()
  (ffn): T5FeedForward(
    (gate): Sequential(
      (0): Linear(in_features=4096, out_features=10240, bias=False)
      (1): GELU()
    )
    (fc1): Linear(in_features=4096, out_features=10240, bias=False)
    (fc2): Linear(in_features=10240, out_features=4096, bias=False)
    (dropout): Dropout(p=0.1, inplace=False)
  )
  (pos_embedding): T5RelativeEmbedding(
    (embedding): Embedding(32, 64)
  )
)
  Block 9: T5SelfAttention(
  (norm1): T5LayerNorm()
  (attn): T5Attention(
    (q): Linear(in_features=4096, out_features=4096, bias=False)
    (k): Linear(in_features=4096, out_features=4096, bias=False)
    (v): Linear(in_features=4096, out_features=4096, bias=False)
    (o): Linear(in_features=4096, out_features=4096, bias=False)
    (dropout): Dropout(p=0.1, inplace=False)
  )
  (norm2): T5LayerNorm()
  (ffn): T5FeedForward(
    (gate): Sequential(
      (0): Linear(in_features=4096, out_features=10240, bias=False)
      (1): GELU()
    )
    (fc1): Linear(in_features=4096, out_features=10240, bias=False)
    (fc2): Linear(in_features=10240, out_features=4096, bias=False)
    (dropout): Dropout(p=0.1, inplace=False)
  )
  (pos_embedding): T5RelativeEmbedding(
    (embedding): Embedding(32, 64)
  )
)
  Block 10: T5SelfAttention(
  (norm1): T5LayerNorm()
  (attn): T5Attention(
    (q): Linear(in_features=4096, out_features=4096, bias=False)
    (k): Linear(in_features=4096, out_features=4096, bias=False)
    (v): Linear(in_features=4096, out_features=4096, bias=False)
    (o): Linear(in_features=4096, out_features=4096, bias=False)
    (dropout): Dropout(p=0.1, inplace=False)
  )
  (norm2): T5LayerNorm()
  (ffn): T5FeedForward(
    (gate): Sequential(
      (0): Linear(in_features=4096, out_features=10240, bias=False)
      (1): GELU()
    )
    (fc1): Linear(in_features=4096, out_features=10240, bias=False)
    (fc2): Linear(in_features=10240, out_features=4096, bias=False)
    (dropout): Dropout(p=0.1, inplace=False)
  )
  (pos_embedding): T5RelativeEmbedding(
    (embedding): Embedding(32, 64)
  )
)
  Block 11: T5SelfAttention(
  (norm1): T5LayerNorm()
  (attn): T5Attention(
    (q): Linear(in_features=4096, out_features=4096, bias=False)
    (k): Linear(in_features=4096, out_features=4096, bias=False)
    (v): Linear(in_features=4096, out_features=4096, bias=False)
    (o): Linear(in_features=4096, out_features=4096, bias=False)
    (dropout): Dropout(p=0.1, inplace=False)
  )
  (norm2): T5LayerNorm()
  (ffn): T5FeedForward(
    (gate): Sequential(
      (0): Linear(in_features=4096, out_features=10240, bias=False)
      (1): GELU()
    )
    (fc1): Linear(in_features=4096, out_features=10240, bias=False)
    (fc2): Linear(in_features=10240, out_features=4096, bias=False)
    (dropout): Dropout(p=0.1, inplace=False)
  )
  (pos_embedding): T5RelativeEmbedding(
    (embedding): Embedding(32, 64)
  )
)
  Block 12: T5SelfAttention(
  (norm1): T5LayerNorm()
  (attn): T5Attention(
    (q): Linear(in_features=4096, out_features=4096, bias=False)
    (k): Linear(in_features=4096, out_features=4096, bias=False)
    (v): Linear(in_features=4096, out_features=4096, bias=False)
    (o): Linear(in_features=4096, out_features=4096, bias=False)
    (dropout): Dropout(p=0.1, inplace=False)
  )
  (norm2): T5LayerNorm()
  (ffn): T5FeedForward(
    (gate): Sequential(
      (0): Linear(in_features=4096, out_features=10240, bias=False)
      (1): GELU()
    )
    (fc1): Linear(in_features=4096, out_features=10240, bias=False)
    (fc2): Linear(in_features=10240, out_features=4096, bias=False)
    (dropout): Dropout(p=0.1, inplace=False)
  )
  (pos_embedding): T5RelativeEmbedding(
    (embedding): Embedding(32, 64)
  )
)
  Block 13: T5SelfAttention(
  (norm1): T5LayerNorm()
  (attn): T5Attention(
    (q): Linear(in_features=4096, out_features=4096, bias=False)
    (k): Linear(in_features=4096, out_features=4096, bias=False)
    (v): Linear(in_features=4096, out_features=4096, bias=False)
    (o): Linear(in_features=4096, out_features=4096, bias=False)
    (dropout): Dropout(p=0.1, inplace=False)
  )
  (norm2): T5LayerNorm()
  (ffn): T5FeedForward(
    (gate): Sequential(
      (0): Linear(in_features=4096, out_features=10240, bias=False)
      (1): GELU()
    )
    (fc1): Linear(in_features=4096, out_features=10240, bias=False)
    (fc2): Linear(in_features=10240, out_features=4096, bias=False)
    (dropout): Dropout(p=0.1, inplace=False)
  )
  (pos_embedding): T5RelativeEmbedding(
    (embedding): Embedding(32, 64)
  )
)
  Block 14: T5SelfAttention(
  (norm1): T5LayerNorm()
  (attn): T5Attention(
    (q): Linear(in_features=4096, out_features=4096, bias=False)
    (k): Linear(in_features=4096, out_features=4096, bias=False)
    (v): Linear(in_features=4096, out_features=4096, bias=False)
    (o): Linear(in_features=4096, out_features=4096, bias=False)
    (dropout): Dropout(p=0.1, inplace=False)
  )
  (norm2): T5LayerNorm()
  (ffn): T5FeedForward(
    (gate): Sequential(
      (0): Linear(in_features=4096, out_features=10240, bias=False)
      (1): GELU()
    )
    (fc1): Linear(in_features=4096, out_features=10240, bias=False)
    (fc2): Linear(in_features=10240, out_features=4096, bias=False)
    (dropout): Dropout(p=0.1, inplace=False)
  )
  (pos_embedding): T5RelativeEmbedding(
    (embedding): Embedding(32, 64)
  )
)
  Block 15: T5SelfAttention(
  (norm1): T5LayerNorm()
  (attn): T5Attention(
    (q): Linear(in_features=4096, out_features=4096, bias=False)
    (k): Linear(in_features=4096, out_features=4096, bias=False)
    (v): Linear(in_features=4096, out_features=4096, bias=False)
    (o): Linear(in_features=4096, out_features=4096, bias=False)
    (dropout): Dropout(p=0.1, inplace=False)
  )
  (norm2): T5LayerNorm()
  (ffn): T5FeedForward(
    (gate): Sequential(
      (0): Linear(in_features=4096, out_features=10240, bias=False)
      (1): GELU()
    )
    (fc1): Linear(in_features=4096, out_features=10240, bias=False)
    (fc2): Linear(in_features=10240, out_features=4096, bias=False)
    (dropout): Dropout(p=0.1, inplace=False)
  )
  (pos_embedding): T5RelativeEmbedding(
    (embedding): Embedding(32, 64)
  )
)
  Block 16: T5SelfAttention(
  (norm1): T5LayerNorm()
  (attn): T5Attention(
    (q): Linear(in_features=4096, out_features=4096, bias=False)
    (k): Linear(in_features=4096, out_features=4096, bias=False)
    (v): Linear(in_features=4096, out_features=4096, bias=False)
    (o): Linear(in_features=4096, out_features=4096, bias=False)
    (dropout): Dropout(p=0.1, inplace=False)
  )
  (norm2): T5LayerNorm()
  (ffn): T5FeedForward(
    (gate): Sequential(
      (0): Linear(in_features=4096, out_features=10240, bias=False)
      (1): GELU()
    )
    (fc1): Linear(in_features=4096, out_features=10240, bias=False)
    (fc2): Linear(in_features=10240, out_features=4096, bias=False)
    (dropout): Dropout(p=0.1, inplace=False)
  )
  (pos_embedding): T5RelativeEmbedding(
    (embedding): Embedding(32, 64)
  )
)
  Block 17: T5SelfAttention(
  (norm1): T5LayerNorm()
  (attn): T5Attention(
    (q): Linear(in_features=4096, out_features=4096, bias=False)
    (k): Linear(in_features=4096, out_features=4096, bias=False)
    (v): Linear(in_features=4096, out_features=4096, bias=False)
    (o): Linear(in_features=4096, out_features=4096, bias=False)
    (dropout): Dropout(p=0.1, inplace=False)
  )
  (norm2): T5LayerNorm()
  (ffn): T5FeedForward(
    (gate): Sequential(
      (0): Linear(in_features=4096, out_features=10240, bias=False)
      (1): GELU()
    )
    (fc1): Linear(in_features=4096, out_features=10240, bias=False)
    (fc2): Linear(in_features=10240, out_features=4096, bias=False)
    (dropout): Dropout(p=0.1, inplace=False)
  )
  (pos_embedding): T5RelativeEmbedding(
    (embedding): Embedding(32, 64)
  )
)
  Block 18: T5SelfAttention(
  (norm1): T5LayerNorm()
  (attn): T5Attention(
    (q): Linear(in_features=4096, out_features=4096, bias=False)
    (k): Linear(in_features=4096, out_features=4096, bias=False)
    (v): Linear(in_features=4096, out_features=4096, bias=False)
    (o): Linear(in_features=4096, out_features=4096, bias=False)
    (dropout): Dropout(p=0.1, inplace=False)
  )
  (norm2): T5LayerNorm()
  (ffn): T5FeedForward(
    (gate): Sequential(
      (0): Linear(in_features=4096, out_features=10240, bias=False)
      (1): GELU()
    )
    (fc1): Linear(in_features=4096, out_features=10240, bias=False)
    (fc2): Linear(in_features=10240, out_features=4096, bias=False)
    (dropout): Dropout(p=0.1, inplace=False)
  )
  (pos_embedding): T5RelativeEmbedding(
    (embedding): Embedding(32, 64)
  )
)
  Block 19: T5SelfAttention(
  (norm1): T5LayerNorm()
  (attn): T5Attention(
    (q): Linear(in_features=4096, out_features=4096, bias=False)
    (k): Linear(in_features=4096, out_features=4096, bias=False)
    (v): Linear(in_features=4096, out_features=4096, bias=False)
    (o): Linear(in_features=4096, out_features=4096, bias=False)
    (dropout): Dropout(p=0.1, inplace=False)
  )
  (norm2): T5LayerNorm()
  (ffn): T5FeedForward(
    (gate): Sequential(
      (0): Linear(in_features=4096, out_features=10240, bias=False)
      (1): GELU()
    )
    (fc1): Linear(in_features=4096, out_features=10240, bias=False)
    (fc2): Linear(in_features=10240, out_features=4096, bias=False)
    (dropout): Dropout(p=0.1, inplace=False)
  )
  (pos_embedding): T5RelativeEmbedding(
    (embedding): Embedding(32, 64)
  )
)
  Block 20: T5SelfAttention(
  (norm1): T5LayerNorm()
  (attn): T5Attention(
    (q): Linear(in_features=4096, out_features=4096, bias=False)
    (k): Linear(in_features=4096, out_features=4096, bias=False)
    (v): Linear(in_features=4096, out_features=4096, bias=False)
    (o): Linear(in_features=4096, out_features=4096, bias=False)
    (dropout): Dropout(p=0.1, inplace=False)
  )
  (norm2): T5LayerNorm()
  (ffn): T5FeedForward(
    (gate): Sequential(
      (0): Linear(in_features=4096, out_features=10240, bias=False)
      (1): GELU()
    )
    (fc1): Linear(in_features=4096, out_features=10240, bias=False)
    (fc2): Linear(in_features=10240, out_features=4096, bias=False)
    (dropout): Dropout(p=0.1, inplace=False)
  )
  (pos_embedding): T5RelativeEmbedding(
    (embedding): Embedding(32, 64)
  )
)
  Block 21: T5SelfAttention(
  (norm1): T5LayerNorm()
  (attn): T5Attention(
    (q): Linear(in_features=4096, out_features=4096, bias=False)
    (k): Linear(in_features=4096, out_features=4096, bias=False)
    (v): Linear(in_features=4096, out_features=4096, bias=False)
    (o): Linear(in_features=4096, out_features=4096, bias=False)
    (dropout): Dropout(p=0.1, inplace=False)
  )
  (norm2): T5LayerNorm()
  (ffn): T5FeedForward(
    (gate): Sequential(
      (0): Linear(in_features=4096, out_features=10240, bias=False)
      (1): GELU()
    )
    (fc1): Linear(in_features=4096, out_features=10240, bias=False)
    (fc2): Linear(in_features=10240, out_features=4096, bias=False)
    (dropout): Dropout(p=0.1, inplace=False)
  )
  (pos_embedding): T5RelativeEmbedding(
    (embedding): Embedding(32, 64)
  )
)
  Block 22: T5SelfAttention(
  (norm1): T5LayerNorm()
  (attn): T5Attention(
    (q): Linear(in_features=4096, out_features=4096, bias=False)
    (k): Linear(in_features=4096, out_features=4096, bias=False)
    (v): Linear(in_features=4096, out_features=4096, bias=False)
    (o): Linear(in_features=4096, out_features=4096, bias=False)
    (dropout): Dropout(p=0.1, inplace=False)
  )
  (norm2): T5LayerNorm()
  (ffn): T5FeedForward(
    (gate): Sequential(
      (0): Linear(in_features=4096, out_features=10240, bias=False)
      (1): GELU()
    )
    (fc1): Linear(in_features=4096, out_features=10240, bias=False)
    (fc2): Linear(in_features=10240, out_features=4096, bias=False)
    (dropout): Dropout(p=0.1, inplace=False)
  )
  (pos_embedding): T5RelativeEmbedding(
    (embedding): Embedding(32, 64)
  )
)
  Block 23: T5SelfAttention(
  (norm1): T5LayerNorm()
  (attn): T5Attention(
    (q): Linear(in_features=4096, out_features=4096, bias=False)
    (k): Linear(in_features=4096, out_features=4096, bias=False)
    (v): Linear(in_features=4096, out_features=4096, bias=False)
    (o): Linear(in_features=4096, out_features=4096, bias=False)
    (dropout): Dropout(p=0.1, inplace=False)
  )
  (norm2): T5LayerNorm()
  (ffn): T5FeedForward(
    (gate): Sequential(
      (0): Linear(in_features=4096, out_features=10240, bias=False)
      (1): GELU()
    )
    (fc1): Linear(in_features=4096, out_features=10240, bias=False)
    (fc2): Linear(in_features=10240, out_features=4096, bias=False)
    (dropout): Dropout(p=0.1, inplace=False)
  )
  (pos_embedding): T5RelativeEmbedding(
    (embedding): Embedding(32, 64)
  )
)
[WanTextEncoder] norm: T5LayerNorm()
    The following models are loaded: ['wan_video_text_encoder'].
Loading models from: pretrained_models/Wan2.1-T2V-1.3B/Wan2.1_VAE.pth
    model_name: wan_video_vae model_class: WanVideoVAE

[VideoVAE_] encoder: Encoder3d(
  (conv1): CausalConv3d(3, 96, kernel_size=(3, 3, 3), stride=(1, 1, 1))
  (downsamples): Sequential(
    (0): ResidualBlock(
      (residual): Sequential(
…
